…
[2023-05-31 09:55:42,545] [INFO] [replace_module.py:738:replace_module] replace_module: <class 'transformers.models.opt.modeling_opt.OPTDecoderLayer'>
[2023-05-31 09:55:42,548] [INFO] [replace_module.py:738:replace_module] replace_module: <class 'transformers.models.clip.modeling_clip.CLIPEncoderLayer'>
[2023-05-31 09:55:42,551] [INFO] [replace_module.py:735:replace_module] replace_module: <class 'transformers.models.distilbert.modeling_distilbert.TransformerBlock'>
[2023-05-31 09:55:42,552] [INFO] [replace_module.py:743:replace_module] model:BloomForCausalLM(
  (transformer): BloomModel(
    (word_embeddings): Embedding(250880, 4096)
    (word_embeddings_layernorm): LayerNorm((4096,), eps=1e-05, elementwise_affine=True)
    (h): ModuleList(
      (0-29): 30 x BloomBlock(
        (input_layernorm): LayerNorm((4096,), eps=1e-05, elementwise_affine=True)
        (self_attention): BloomAttention(
          (query_key_value): Linear(in_features=4096, out_features=12288, bias=True)
          (dense): Linear(in_features=4096, out_features=4096, bias=True)
          (attention_dropout): Dropout(p=0.0, inplace=False)
        )
        (post_attention_layernorm): LayerNorm((4096,), eps=1e-05, elementwise_affine=True)
        (mlp): BloomMLP(
          (dense_h_to_4h): Linear(in_features=4096, out_features=16384, bias=True)
          (gelu_impl): BloomGelu()
          (dense_4h_to_h): Linear(in_features=16384, out_features=4096, bias=True)
        )
      )
    )
    (ln_f): LayerNorm((4096,), eps=1e-05, elementwise_affine=True)
  )
  (lm_head): Linear(in_features=4096, out_features=250880, bias=False)
), orig_class:None, policy:{<class 'transformers.models.bert.modeling_bert.BertLayer'>: (<function replace_transformer_layer.<locals>.replace_fn at 0x7fa462abd550>, <class 'deepspeed.module_inject.containers.bert.HFBertLayerPolicy'>), <class 'transformers.models.roberta.modeling_roberta.RobertaLayer'>: (<function replace_transformer_layer.<locals>
…
>: (<function replace_transformer_layer.<locals>.replace_fn at 0x7fa462abd550>, <class 'deepspeed.module_inject.containers.clip.HFCLIPLayerPolicy'>), <class 'transformers.models.distilbert.modeling_distilbert.TransformerBlock'>: (<function replace_transformer_layer.<locals>.replace_fn at 0x7fa462abd550>, <class 'deepspeed.module_inject.containers.distil_bert.HFDistilBertLayerPolicy'>)}
[2023-05-31 09:55:42,552] [INFO] [replace_module.py:759:_replace_module] layer_id:0
[2023-05-31 09:55:42,553] [INFO] [replace_module.py:761:_replace_module] name:transformer, child:BloomModel(
  (word_embeddings): Embedding(250880, 4096)
  (word_embeddings_layernorm): LayerNorm((4096,), eps=1e-05, elementwise_affine=True)
  (h): ModuleList(
    (0-29): 30 x BloomBlock(
      (input_layernorm): LayerNorm((4096,), eps=1e-05, elementwise_affine=True)
      (self_attention): BloomAttention(
        (query_key_value): Linear(in_features=4096, out_features=12288, bias=True)
        (dense): Linear(in_features=4096, out_features=4096, bias=True)
        (attention_dropout): Dropout(p=0.0, inplace=False)
      )
      (post_attention_layernorm): LayerNorm((4096,), eps=1e-05, elementwise_affine=True)
      (mlp): BloomMLP(
        (dense_h_to_4h): Linear(in_features=4096, out_features=16384, bias=True)
        (gelu_impl): BloomGelu()
        (dense_4h_to_h): Linear(in_features=16384, out_features=4096, bias=True)
      )
    )
  )
  (ln_f): LayerNorm((4096,), eps=1e-05, elementwise_affine=True)
)
[2023-05-31 09:55:42,553] [INFO] [replace_module.py:759:_replace_module] layer_id:0
[2023-05-31 09:55:42,553] [INFO] [replace_module.py:761:_replace_module] name:word_embeddings, child:Embedding(250880, 4096)
[2023-05-31 09:55:42,553] [INFO] [replace_module.py:759:_replace_module] layer_id:0
[2023-05-31 09:55:42,553] [INFO] [replace_module.py:761:_replace_module] name:word_embeddings_layernorm, child:LayerNorm((4096,), eps=1e-05, elementwise_affine=True)
[2023-05-31 09:55:42,553] [INFO] [replace_module.py:759:_replace_module] layer_id:0
[2023-05-31 09:55:42,554] [INFO] [replace_module.py:761:_replace_module] name:h, child:ModuleList(
  (0-29): 30 x BloomBlock(
    (input_layernorm): LayerNorm((4096,), eps=1e-05, elementwise_affine=True)
    (self_attention): BloomAttention(
      (query_key_value): Linear(in_features=4096, out_features=12288, bias=True)
      (dense): Linear(in_features=4096, out_features=4096, bias=True)
      (attention_dropout): Dropout(p=0.0, inplace=False)
    )
    (post_attention_layernorm): LayerNorm((4096,), eps=1e-05, elementwise_affine=True)
    (mlp): BloomMLP(
      (dense_h_to_4h): Linear(in_features=4096, out_features=16384, bias=True)
      (gelu_impl): BloomGelu()
      (dense_4h_to_h): Linear(in_features=16384, out_features=4096, bias=True)
    )
  )
)
[2023-05-31 09:55:42,554] [INFO] [replace_module.py:759:_replace_module] layer_id:0
[2023-05-31 09:55:42,554] [INFO] [replace_module.py:761:_replace_module] name:0, child:BloomBlock(
  (input_layernorm): LayerNorm((4096,), eps=1e-05, elementwise_affine=True)
  (self_attention): BloomAttention(
    (query_key_value): Linear(in_features=4096, out_features=12288, bias=True)
    (dense): Linear(in_features=4096, out_features=4096, bias=True)
    (attention_dropout): Dropout(p=0.0, inplace=False)
  )
  (post_attention_layernorm): LayerNorm((4096,), eps=1e-05, elementwise_affine=True)
  (mlp): BloomMLP(
    (dense_h_to_4h): Linear(in_features=4096, out_features=16384, bias=True)
    (gelu_impl): BloomGelu()
    (dense_4h_to_h): Linear(in_features=16384, out_features=4096, bias=True)
  )
)
[2023-05-31 09:55:42,555] [INFO] [replace_module.py:482:replace_fn] AAAAAAAAA
[2023-05-31 09:55:42,555] [INFO] [replace_module.py:308:replace_with_policy] replace_with_policy
ninja: no work to do.
Time to load transformer_inference op: 0.1478745937347412 seconds
[2023-05-31 09:55:43,669] [INFO] [logging.py:96:log_dist] [Rank -1] DeepSpeed-Infe
…
[2023-05-31 09:55:43,860] [INFO] [replace_module.py:765:_replace_module] <class 'transformers.models.bloom.modeling_bloom.BloomBlock'> in policies execute replace with DeepSpeedBloomInference(
  (attention): BloomSelfAttention(
    (qkv_func): QKVGemmOp()
    (score_context_func): SoftmaxContextOp()
    (linear_func): LinearOp()
    (vector_matmul_func): VectorMatMulOp()
    (softmax_func): SoftmaxOp()
  )
  (mlp): DeepSpeedMLP(
    (mlp_gemm_func): MLPGemmOp()
    (vector_matmul_func): VectorMatMulOp()
    (fused_gemm_gelu): GELUGemmOp()
    (residual_add_func): ResidualAddOp()
  )
)
[2023-05-31 09:55:43,861] [INFO] [replace_module.py:761:_replace_module] name:1, child:BloomBlock(
  (input_layernorm): LayerNorm((4096,), eps=1e-05, elementwise_affine=True)
  (self_attention): BloomAttention(
    (query_key_value): Linear(in_features=4096, out_features=12288, bias=True)
    (dense): Linear(in_features=4096, out_features=4096, bias=True)
    (attention_dropout): Dropout(p=0.0, inplace=False)
  )
  (post_attention_layernorm): LayerNorm((4096,), eps=1e-05, elementwise_affine=True)
  (mlp): BloomMLP(
    (dense_h_to_4h): Linear(in_features=4096, out_features=16384, bias=True)
    (gelu_impl): BloomGelu()
    (dense_4h_to_h): Linear(in_features=16384, out_features=4096, bias=True)
  )
)
[2023-05-31 09:55:43,861] [INFO] [replace_module.py:482:replace_fn] AAAAAAAAA
[2023-05-31 09:55:43,861] [INFO] [replace_module.py:308:replace_with_policy] replace_with_policy
[2023-05-31 09:55:43,864] [INFO] [replace_module.py:765:_replace_module] <class 'transformers.models.bloom.modeling_bloom.BloomBlock'> in policies execute replace with DeepSpeedBloomInference(
…
